data.pth (torch, 7447 bytes, 6 tensors)

l1.weight f4 [8, 88]
0	0x3e1814ce	0.14851686
1	0x3e3241d6	0.17407927
2	0x3f02dab7	0.5111498
3	0x3fa761a0	1.3076668
4	0xbe5581a7	-0.2085024
5	0xbe6e7f92	-0.23290852
6	0x3ec25356	0.37954205
7	0xbf2bb6ee	-0.67076004
8	0xbd9846b4	-0.074353606
9	0x3edcd432	0.43130642
10	0xbfa6f1f3	-1.3042587
11	0x3f0d7aaa	0.55265296
12	0xbf9b7dbf	-1.214775
13	0x3f00c342	0.5029794
14	0xbeb7fdac	-0.35935724
15	0x3f9b8fe0	1.2153282
16	0xbf46e7a7	-0.77697223
17	0xbf81f2c0	-1.0152206
18	0xbe7b6358	-0.24549615
19	0x3e8ac8d8	0.27106357
20	0x3ffb5a42	1.963692
21	0x3fa3ef6c	1.2807441
22	0xbf2a1ba5	-0.6644843
23	0xbf45d099	-0.7727142
24	0x3f49a83e	0.7877234
25	0x3ee22526	0.44168967
26	0xbf2aa61c	-0.6665971
27	0xc00c6793	-2.1938217
28	0x3f1b6507	0.6070103
29	0x3e213405	0.157425
30	0x3fb1ae22	1.3881266
31	0x3da6f102	0.08151437
32	0x4015dbe4	2.341546
33	0x3de28013	0.110595845
34	0xbf19f07a	-0.60132563
35	0xbf9397e0	-1.1530724
36	0x3d73ddff	0.059537884
37	0xbf440d4d	-0.76582795
38	0x3ec88094	0.39160597
39	0xbdf89f18	-0.1213972
40	0xbf75d91a	-0.96034396
41	0x3bb4d3bf	0.005518406
42	0xbf8ca652	-1.0988257
43	0xbf7eaf3d	-0.9948614
44	0x3ffe6e35	1.9877383
45	0x3db34963	0.08754232
46	0x3f3265b9	0.69686466
47	0x3cdc76c8	0.026912108
48	0x3f8e538d	1.1119248
49	0xbeaed53e	-0.34147066
50	0x3dade17d	0.08490274
51	0xbee9e955	-0.4568583
52	0x3fb7f265	1.4370848
53	0xbe517d8c	-0.20458049
54	0x3e826719	0.25469282
55	0xbf0227d7	-0.5084204
56	0x3f90f942	1.1326067
57	0x3ebddbf8	0.37081885
58	0x3f45e2f4	0.7729943
59	0x3e51b1ec	0.20478028
60	0x3f1051a5	0.5637458
61	0x3f29cd0d	0.6632851
62	0x3ed59d31	0.4172149
63	0xbf4c2087	-0.7973713
64	0xbf54f7d2	-0.83190644
65	0x3ed64a39	0.41853502
66	0x3f3545cd	0.7080963
67	0xbe15be3e	-0.14623353
68	0x4026ba7e	2.6051326
69	0xbed49727	-0.4152157
70	0xbf58621c	-0.84524703
71	0x3fb9a36a	1.4502995
72	0x3f1b1c82	0.60590374
73	0x3ed8cd2a	0.42344028
74	0x3deaa959	0.11458082
75	0xbf3e941f	-0.74444765
76	0xbe4a4b5a	-0.19755307
77	0xbe47a0d3	-0.19494943
78	0xbd28a956	-0.041177116
79	0x3e2d71ee	0.16937992
80	0x3e96dfb1	0.29467538
81	0xbd73dac0	-0.059534788
82	0x3dd0be41	0.10192538
83	0x40075c4f	2.115009
84	0x3ed234c1	0.41055873
85	0xbe5710d5	-0.21002515
86	0xbe4c16cc	-0.19930571
87	0x3f23bbf5	0.63958675
88	0x3f232217	0.6372389
89	0x3f0913b3	0.53545684
90	0x3e6869c2	0.22696593
91	0xbeba4304	-0.36379254
92	0xbef55658	-0.47917438
93	0x3f197b94	0.5995419
94	0x3f1b216c	0.6059787
95	0x3eebafec	0.46032655
96	0xbdd12a89	-0.10213191
97	0x3e830888	0.25592446
98	0xbf8db355	-1.1070353
99	0xbf7a849c	-0.97858596
100	0xbef26c2e	-0.4734816
101	0xbdb8d702	-0.090253845
102	0xbeeaf10a	-0.45887023
103	0x3d4ea759	0.050452564
104	0xbee46b7d	-0.44613257
105	0x3f2280bd	0.6347769
106	0x3f20b5e0	0.6277752
107	0x3f001af8	0.5004115
108	0x3ea68d01	0.32529452
109	0xbe09bf86	-0.13451967
110	0x3f1b8260	0.6074581
111	0xbfa1d7ca	-1.2643979
112	0x3b395368	0.0028278474
113	0xbe18cdb2	-0.14922217
114	0xbee3c521	-0.44486335
115	0xbf2c4770	-0.67296505
116	0x3f490b80	0.7853317
117	0xbeda71e5	-0.4266502
118	0xbf0e1e2f	-0.55514807
119	0x3e4b370d	0.19845219
120	0xbf9653c0	-1.1744308
121	0xbdc7a647	-0.09748512
122	0x3f264004	0.6494143
123	0xbf013671	-0.50473696
124	0x3f390535	0.7227357
125	0xbee68665	-0.4502441
126	0x3efd9847	0.4953024
127	0x3ecdea2d	0.40217724
128	0x3f87b592	1.0602286
129	0x3f1d2e4e	0.6139878
130	0x3f868da9	1.0511981
131	0x3f93ce23	1.1547283
132	0x3fb4de6b	1.4130377
133	0x3d35a74c	0.044349
134	0x3dfc391c	0.1231558
135	0x3d469b64	0.048488036
136	0xbf5d1654	-0.86362195
137	0x3ed19315	0.40932527
138	0x3e9b969e	0.3038835
139	0xbf154429	-0.5830713
140	0x401778d0	2.3667488
141	0xbef5213c	-0.47876918
142	0x3f1314b1	0.5745345
143	0xbf3dc836	-0.7413362
144	0xbf9e8efe	-1.2387388
145	0xbd7051b8	-0.058671683
146	0xbd9780fe	-0.0739765
147	0xbe65032f	-0.22364496
148	0x3e8468a6	0.2586109
149	0x3e36934e	0.1782963
150	0xbe7e363d	-0.24825378
151	0xbef3142b	-0.47476324
152	0x3ef23dce	0.47312778
153	0xbdae4b43	-0.08510449
154	0xbdfc2a9e	-0.12312816
155	0xbe5530dd	-0.20819421
156	0x3e0e8416	0.13917574
157	0xbee690bc	-0.450323
158	0x3f56e035	0.8393586
159	0x3f294b8e	0.6613091
160	0x3e163169	0.14667286
161	0x3f801150	1.0005283
162	0x3ef7cb29	0.48397186
163	0x3be3c4e7	0.006950963
164	0x3f175afc	0.59123206
165	0xbf18d6e8	-0.5970292
166	0xbe81c157	-0.2534282
167	0x3f3eaec5	0.7448543
168	0x3e99a3bc	0.30007732
169	0xbe8673dd	-0.26260272
170	0x3c63db43	0.013907257
171	0x3f9aecf0	1.2103558
172	0x3d3e04fb	0.04639147
173	0xbefea4e6	-0.49735183
174	0x3f19e7f5	0.60119563
175	0xbe101a40	-0.14072514
176	0xbec2ce4b	-0.38048014
177	0xbdaf8a09	-0.0857125
178	0x3ebe112c	0.37122476
179	0x3f807626	1.0036056
180	0x3e9a6fe9	0.30163506
181	0xbe1d1c03	-0.15342717
182	0x3e888d57	0.26670334
183	0x3e584b7c	0.21122545
184	0x3e932509	0.28739193
185	0x3ea4f9d7	0.32221863
186	0x3f2ae514	0.66755795
187	0x3f9a3269	1.2046634
188	0xbf0b7322	-0.54472554
189	0x3e2b6e64	0.1674133
190	0xbf1a1c6a	-0.60199606
191	0xbf114164	-0.56740403
192	0xbe095211	-0.13410212
193	0xbeac6246	-0.33668727
194	0x3f7dcf1f	0.99144167
195	0xbecf0df3	-0.4044033
196	0x4012004d	2.2812684
197	0xbf25019a	-0.6445557
198	0xbd03d091	-0.032181326
199	0xbee307e5	-0.4434196
200	0xbec2197a	-0.37910062
201	0x3e8f64c8	0.28006577
202	0xbf904306	-1.1270454
203	0xbea4fb17	-0.32222816
204	0x3f2701ca	0.65237105
205	0xbe9274bc	-0.28604686
206	0xbf9eb267	-1.2398194
207	0x3e808f09	0.25109127
208	0xbeb47c65	-0.35251155
209	0x3e9d6344	0.30739796
210	0xbd20e58b	-0.03928141
211	0xbeb7b17f	-0.35877606
212	0xbf85cf50	-1.0453892
213	0xbe1b38b9	-0.15158357
214	0x3e6d7b5e	0.23191592
215	0x3f282dfe	0.6569518
216	0xbede9612	-0.4347387
217	0xbe93fef1	-0.28905442
218	0xbe9e9867	-0.3097565
219	0xbf0fde06	-0.56198156
220	0xbf48a5b5	-0.7837785
221	0x3df3d1f3	0.11905279
222	0x3ecde9e6	0.40217513
223	0x3e9ebf4a	0.31005317
224	0xbf511fce	-0.81689155
225	0x3e11bf39	0.14233102
226	0x3cafdeae	0.021468487
227	0xbd27e0ea	-0.04098598
228	0x3fe2a533	1.7706665
229	0x3f21cc54	0.63202405
230	0xbdbffa6e	-0.093739375
231	0xbebffe1c	-0.37498558
232	0x3e593ceb	0.21214645
233	0x3ea68961	0.32526687
234	0xbd3e687f	-0.046486374
235	0x3f0624a9	0.5239969
236	0xbf0fab49	-0.56120735
237	0x3c32c66b	0.010911564
238	0xbcfdda2f	-0.030987827
239	0xbe74649a	-0.23866501
240	0x3fcc0f8d	1.5942246
241	0x3c822d69	0.015890794
242	0xbedd8993	-0.43269023
243	0xbefab481	-0.4896584
244	0x3f04ed22	0.51924336
245	0xbd301406	-0.042987846
246	0xbeb504a4	-0.35355103
247	0x3f83beff	1.0292662
248	0x3eba946a	0.36441356
249	0xbf85ccd8	-1.0453138
250	0xbec04d8d	-0.37559167
251	0x3ec75e72	0.38939244
252	0xbe8f6146	-0.280039
253	0xbdf293bd	-0.11844585
254	0x3f175324	0.5911124
255	0xbf85cf2f	-1.0453852

l1.bias f4 [8]
0	0x3fa3dec2	1.2802355
1	0x3fa31f2c	1.2743888
2	0x3f85d321	1.0455056
3	0x3fe3201e	1.7744176
4	0x3f8f2735	1.118384
5	0x3f4a6e3e	0.79074466
6	0x3fd9717d	1.6987759
7	0x3f9511df	1.1646079

l2.weight f4 [8, 8]
0	0x3f842bc6	1.0325859
1	0x3eff5f43	0.49877366
2	0xbfefe51e	-1.8741796
3	0xbdca88eb	-0.09889396
4	0x40010810	2.016117
5	0xbf7bd902	-0.98378
6	0xbe8f503a	-0.27990896
7	0x3f8fb61a	1.1227448
8	0x403ab262	2.9171376
9	0x3efb1865	0.4904205
10	0x400f033c	2.2345724
11	0xbf426700	-0.75938416
12	0xbf8878cf	-1.0661868
13	0x3faa5a28	1.3308764
14	0x3f439ead	0.76413995
15	0xbf8910f0	-1.0708294
16	0x3cdf3c40	0.02725041
17	0xbe47d987	-0.19516574
18	0xbd103c68	-0.035213858
19	0xbe8a72fa	-0.27040845
20	0xbd59c9d0	-0.05317098
21	0xbe462125	-0.19348581
22	0x3e03c362	0.12867501
23	0xbe171956	-0.14755759
24	0xbec06ef3	-0.37584648
25	0xbf114488	-0.56745195
26	0x3fcccc2e	1.5999811
27	0x3ffde805	1.9836432
28	0xbfc9619a	-1.5732911
29	0x40185e14	2.380742
30	0xbfc4e8a9	-1.5383502
31	0x40382ab5	2.8776066
32	0xbfacd9d6	-1.3503978
33	0x3fa669af	1.3001002
34	0x3f30eff1	0.6911612
35	0x403ceb70	2.95187
36	0x3fbee6a9	1.4914142
37	0x3eab4d12	0.33457237
38	0x4043b636	3.0579963
39	0xbe5ebfa8	-0.21752799
40	0x3f812f31	1.0092527
41	0x40196b61	2.397179
42	0x3fa695be	1.3014448
43	0x3fdba32a	1.7159169
44	0x3fc8fa5b	1.5701402
45	0xbf5c83aa	-0.86138403
46	0xc00e4e8a	-2.2235436
47	0xbfb8b1f9	-1.4429313
48	0x3e0048cf	0.12527774
49	0x3cfb32bb	0.030663839
50	0xbeaf33e8	-0.3421929
51	0xbdfd57f8	-0.12370294
52	0xbea58b4c	-0.32332838
53	0x3e3ab57a	0.1823329
54	0xbe0ed563	-0.13948588
55	0xbdcf9c10	-0.101371884
56	0x3d0db129	0.03459278
57	0xbccadb69	-0.024762826
58	0xbe6f9b42	-0.2339907
59	0xbe960a03	-0.29304513
60	0xbdc132e1	-0.094335325
61	0x3da1eca0	0.07906461
62	0xbd8df5b0	-0.06931627
63	0xbe4d9f84	-0.20080382

l2.bias f4 [8]
0	0x3edf96cb	0.43669733
1	0x3ecb892e	0.39753097
2	0xbe062da2	-0.13103345
3	0x3f048ca8	0.51777124
4	0x3f0ea3db	0.55718774
5	0x3f0fcc03	0.5617067
6	0xbecd113b	-0.40052208
7	0xbe5408ee	-0.20706531

l3.weight f4 [24, 8]
0	0x3f8ed4ce	1.1158693
1	0xbfa6a9f4	-1.3020616
2	0xbe4e8019	-0.20166053
3	0xbf7e52f2	-0.99345315
4	0x3ec38f59	0.38195303
5	0xbfaa904f	-1.332529
6	0xbd738c58	-0.059460014
7	0xbec52005	-0.3850099
8	0xc029301f	-2.643562
9	0xbed41d6d	-0.414287
10	0x3e2986ee	0.16555378
11	0x3fa12eb8	1.2592382
12	0xbfd578e6	-1.667752
13	0xbf66b861	-0.9012509
14	0xbecf3116	-0.40467137
15	0xbeb54033	-0.35400543
16	0xc0231ba5	-2.5485623
17	0x3f43d73a	0.76500285
18	0xbe9712dd	-0.2950658
19	0x3e103d16	0.14085802
20	0xc02d49a8	-2.7076206
21	0x3e71aee0	0.23601866
22	0x3dbf5691	0.09342683
23	0x3db5ac57	0.08870762
24	0xc0813323	-4.0374923
25	0x3f01635d	0.5054224
26	0xbd1fcfe8	-0.039016634
27	0xbf25f74c	-0.6483047
28	0x3f48832e	0.78325164
29	0xbfef8218	-1.8711576
30	0xbe1e6e2b	-0.15471713
31	0xbeac4059	-0.33642843
32	0xc050ce62	-3.2625966
33	0xbfa16636	-1.2609317
34	0x3eb2a993	0.34895
35	0x3f4440ac	0.7666118
36	0x3eef4305	0.4673082
37	0xc015183e	-2.3296046
38	0xbe872fd1	-0.2640367
39	0x3e5e5631	0.21712567
40	0xc053da7e	-3.3102107
41	0x3eaf8911	0.3428426
42	0x3dd52484	0.104073554
43	0x3f2cfd2b	0.67573804
44	0xbecbb52b	-0.39786658
45	0xc02f1991	-2.7359354
46	0xbe0ae730	-0.13564754
47	0x3d58a248	0.05288914
48	0xbd1f9e11	-0.038969103
49	0xc00a5712	-2.1615644
50	0xbe8f195d	-0.27949038
51	0x3ed2159f	0.4103212
52	0xbf388b23	-0.72087306
53	0x3e519405	0.20466621
54	0x3e30d584	0.1726895
55	0xbe87dbe7	-0.2653496
56	0xc068e439	-3.6389296
57	0x3f0e009e	0.5546969
58	0xbcbc5c80	-0.022993326
59	0x3d89add6	0.0672261
60	0xbf3bd257	-0.7336783
61	0xbcbfea4a	-0.023427147
62	0x3e54ead8	0.20792711
63	0xbeba0877	-0.36334583
64	0x3f61cf17	0.8820662
65	0xbde625ce	-0.112376794
66	0xbdf70ff0	-0.12063587
67	0xbfb5609e	-1.417011
68	0xbfb310dd	-1.3989521
69	0x3f093cc5	0.5360835
70	0x3e869b4c	0.26290357
71	0xbe0486f7	-0.1294211
72	0xbf0ffec3	-0.5624811
73	0xc01e22a9	-2.4708655
74	0x3c3f4d20	0.011676103
75	0x3f4b5b16	0.7943586
76	0xbd81a5cf	-0.063304536
77	0xbff25d9f	-1.8934821
78	0xbdd8a86e	-0.105790004
79	0xbd691ac7	-0.056910302
80	0xc04e11a2	-3.2198262
81	0xbf4c5c2f	-0.7982816
82	0xbe0ab45a	-0.13545361
83	0xbf4d36e5	-0.8016189
84	0x3f7b5f53	0.9819233
85	0xbf0b6521	-0.54451185
86	0xbea1012d	-0.3144621
87	0xbcad7f4a	-0.02117886
88	0xbe82f03c	-0.2557391
89	0x3f332947	0.6998486
90	0xbe5871dc	-0.21137184
91	0xc0158d1a	-2.3367372
92	0x3f0aba50	0.5419054
93	0xbfa2000d	-1.2656265
94	0x3e901834	0.28143466
95	0xbeb2bd01	-0.34909824
96	0xbfd67245	-1.6753622
97	0x3f90102b	1.1254934
98	0x3eb3c9cd	0.351149
99	0xbef408ba	-0.47662908
100	0xbf20d20a	-0.62820494
101	0xc017e621	-2.373421
102	0xbe2f9a46	-0.17148694
103	0x3c3e55f8	0.011617176
104	0xbfa1176c	-1.2585273
105	0xc01b1a4b	-2.4234798
106	0xbe9fd904	-0.31220257
107	0xbecf0314	-0.40432036
108	0x3f98b877	1.1931294
109	0xc00730d2	-2.1123548
110	0xbe5ca14d	-0.21545906
111	0x3db23743	0.087019466
112	0xbf79f0f6	-0.976333
113	0xbfc42157	-1.5322675
114	0x3e79cc16	0.24394259
115	0xc0154887	-2.3325517
116	0x3f6d6105	0.92726165
117	0x3e5e5312	0.21711376
118	0x3d3e3a37	0.046442237
119	0xbe02046f	-0.12697004
120	0xbe1a7d4c	-0.1508686
121	0xbcf3ccab	-0.02976068
122	0xbe0300b4	-0.12793237
123	0xc01292e9	-2.2902167
124	0xbea69703	-0.32537088
125	0x3f35dfb6	0.7104448
126	0x3e8fceb4	0.2808739
127	0xbec8f6dc	-0.3925084
128	0x3dc20935	0.09474412
129	0xbe3e40ff	-0.18579482
130	0x3e7a3eae	0.24437973
131	0x3f358721	0.70909315
132	0xbfe6e912	-1.8039877
133	0xbec9472e	-0.39312118
134	0xbe66fb51	-0.22556807
135	0xbde08d5b	-0.109644614
136	0xbff5b4ad	-1.9195763
137	0x3e823472	0.25430638
138	0xbe46834a	-0.1938602
139	0xbfd7ed4b	-1.6869291
140	0x3f08a072	0.5336982
141	0x3de9200b	0.11383065
142	0x3e3c1522	0.18367437
143	0xbdbb0c42	-0.09133197
144	0xc05e0914	-3.469304
145	0xbea9ef80	-0.33190536
146	0x3e4cb65e	0.19991443
147	0x3ef3bacc	0.47603452
148	0x3e03790f	0.12839149
149	0xbf5090a3	-0.814707
150	0xbe1de56a	-0.15419546
151	0xbeb1fda3	-0.34763822
152	0xc0560e6b	-3.34463
153	0xbeb15e0d	-0.34642068
154	0x3e886f6d	0.2664751
155	0xbe740bfd	-0.23832698
156	0x3e1764f5	0.14784606
157	0x3ea3b8b3	0.31976852
158	0x3dfcd8f7	0.1234607
159	0xbe1bc694	-0.1521247
160	0xbf22d78f	-0.63610166
161	0x3f73580c	0.95056224
162	0xbd454f30	-0.048171222
163	0xbffb54ab	-1.9635214
164	0xbfb46f4f	-1.4096469
165	0x3f16e90c	0.5894935
166	0xbe8c00fc	-0.273445
167	0xbda48528	-0.0803321
168	0xbfd327c6	-1.6496513
169	0xc00030f8	-2.0029888
170	0x3e83f805	0.2577516
171	0x3e62b018	0.22137487
172	0x3eaea367	0.3410904
173	0x3dbe9547	0.09305816
174	0xbe811bd2	-0.25216538
175	0x3e0ddd36	0.13853917
176	0x3f306f3f	0.6891975
177	0xbffb1121	-1.9614602
178	0x3df76f98	0.12081832
179	0xbfb93005	-1.4467779
180	0xbe74be8d	-0.23900814
181	0x3f708126	0.93947065
182	0xbdc193e3	-0.09452035
183	0xbe97a3a2	-0.2961703
184	0xc024c93a	-2.574782
185	0x3eae810f	0.3408284
186	0xbd9136dc	-0.07090542
187	0xbf735a21	-0.950594
188	0xbefa5111	-0.48889974
189	0x3f45f0a7	0.7732033
190	0x3e544108	0.20727932
191	0x3e458f58	0.19292963

l3.bias f4 [24]
0	0x3ef1a63b	0.47197136
1	0x3dbbd665	0.09171752
2	0xbf0e3a43	-0.5555765
3	0x3de198d3	0.11015477
4	0xbc3fc500	-0.011704683
5	0xbeae0c5a	-0.33993798
6	0xbd97db47	-0.07414871
7	0x3e83e5d4	0.25761282
8	0x3e4e25dc	0.2013163
9	0x3e9f7474	0.31143534
10	0xbe87d8c3	-0.26532564
11	0x3f4d2a4f	0.8014268
12	0x3e374076	0.17895684
13	0x3f379d80	0.717247
14	0xbd50907c	-0.05091904
15	0xbec3a8ea	-0.3821481
16	0x3f3364e7	0.7007584
17	0xbe13c8b7	-0.14432035
18	0xbf3b1ade	-0.7308787
19	0xbf4c4191	-0.79787546
20	0x3ebe5781	0.37176135
21	0xbe8e48b1	-0.27789834
22	0xbb0d0aee	-0.0021521407
23	0xbf55e12f	-0.8354673
