data.pth (torch, 7447 bytes, 6 tensors)

l1.weight f4 [8, 88]
-0.2516627 -0.070493795 0.16600727 0.9244812 0.48141167 -0.36033535 -0.2407417 -0.45617735
-0.079049475 0.16159423 0.2110945 -0.24822193 -0.86093235 0.2784371 0.4207737 0.30585897
-0.6556839 0.8073659 0.5889478 0.5615611 -0.75659436 -1.0339843 0.2432322 -0.3822151
0.8276724 0.28385687 0.41095045 -0.67168885 0.6575246 0.11012679 0.008489116 1.6843115
-0.3491058 -0.42933294 0.5996507 -0.4791473 -0.86096996 -0.86089325 -0.6032539 -0.054431565
0.6063365 -0.8609609 -0.3736892 -0.8609134 -0.79395825 -1.5626049 0.08188573 0.08086301
0.12731247 -0.860968 -0.22165103 0.22929315 -0.4093152 1.4617658 0.15358086 -0.10191884
0.08490879 -1.160355 -0.6366802 0.09159539 0.15072314 0.7322658 0.17568572 -0.7163729
1.0196612 0.59553826 -0.27282602 -0.2859492 1.3531264 -0.31199348 0.9263879 -0.75188285
-0.064476885 -0.86089814 -0.20415911 0.06495106 -0.27871835 0.09538127 0.42807204 -0.8608614
0.35190395 0.46239975 0.95409894 -0.18922886 0.05895953 0.11261685 -0.13964127 -0.27855837
0.34371135 0.13205594 0.10127085 0.027462434 -0.50632405 0.3709842 -0.120272815 0.55364555
0.39105323 0.19875112 1.0644538 -0.46493492 -0.7828647 -0.07693905 -0.13425292 0.5945627
0.7374525 -0.5920469 0.5872139 0.9759196 -0.36311734 1.1697948 0.6220561 0.61528504
0.13584794 0.2405512 -0.17400457 -1.0578915 -0.40838963 0.48318207 -0.06835966 -0.38024327
0.19332296 -1.0742897 -0.38241646 0.4678047 -0.7726519 0.5076527 0.78591925 0.3754302
0.027609063 0.87154114 0.32171476 0.9062255 0.8376819 -0.7775961 0.20826133 0.20473853
-0.059047285 1.4474292 0.58616203 0.28057453 -0.36409637 -0.5925968 0.72907275 0.3049667
0.28890854 -0.686584 0.24465713 0.45461354 0.37225813 -0.4491824 -0.03831046 0.5989339
1.0546216 0.061180223 0.6178141 0.45964795 -1.0376801 -0.45874366 -0.6533696 -0.929579
0.16692203 0.6068912 0.26543272 0.18832043 0.45405233 0.4989169 -0.14343272 0.6030592
0.25050122 -0.008451048 -0.12175996 1.2005442 0.09474682 0.518151 0.13391453 0.27329963
-0.24194397 -0.28175977 0.12976584 0.74340034 0.9205872 0.53699833 0.010202573 0.9699731
0.34111303 0.091638535 0.4365981 -0.9414301 -0.8983984 0.059211493 -0.5096458 0.05151607
0.6047428 0.43691 -0.38447356 -0.04715158 0.059279144 -0.71902466 -0.03219565 0.7968666
-0.42565534 0.40886167 0.44916543 1.5116651 0.95536095 0.13981049 0.63335115 -1.5343724
0.54576397 -0.9586873 0.22345558 0.76345885 -0.8913729 -0.77348006 0.49125138 0.012600479
0.3516981 1.0808622 -0.19986351 1.0115857 1.1585293 -1.5304016 0.41753972 0.16005601
0.025426622 -0.9344241 0.59042215 -0.16978547 -0.4320109 0.46570054 0.39890411 -0.18280558
0.36199078 0.525086 0.34945366 0.18698815 0.09718174 0.35098457 -0.17512804 0.548797
-1.3994343 -0.1685124 -0.20108443 -0.23318605 -1.4962924 -0.53693366 0.37526768 1.6512105
-0.012380371 -0.7288441 -0.30012855 -0.09811517 0.68628126 -0.09649515 0.37084138 -0.75803626
00000000: efd9 80be 0d5f 90bd cffd 293e cdaa 6c3f
00000010: 977b f63e e07d b8be fe84 76be 1490 e9be
00000020: b1e4 a1bd f578 253e 2829 583e e42d 7ebe
00000030: 1066 5cbf 4f8f 8e3e a76f d73e 8c99 9c3e
00000040: e6da 27bf 88af 4e3f 48c5 163f 78c2 0f3f
00000050: 2bb0 41bf 9959 84bf dd11 793e b3b1 c3be
00000060: 57e2 533f b055 913e 1968 d23e cdf3 2bbf
00000070: 8853 283f 288a e13d ef15 0b3c 8597 d73f
00000080: ffbd b2be 87d1 dbbe b582 193f cb52 f5be
00000090: 8768 5cbf 8063 5cbf d96e 1abf a2f3 5ebd
000000a0: de38 1b3f ef67 5cbf 3154 bfbe d264 5cbf
000000b0: d940 4bbf 7003 c8bf b5b3 a73d 819b a53d
000000c0: 335e 023e 6668 5cbf 7df8 62be d3cb 6a3e
000000d0: c391 d1be 241b bb3f 4d44 1d3e d3ba d0bd
000000e0: a9e4 ad3d 8386 94bf 79fd 22bf 5d96 bb3d
000000f0: 2b57 1a3e c575 3b3f f5e6 333e 3764 37bf
00000100: 4284 823f 3275 183f daaf 8bbe ef67 92be
00000110: 3f33 ad3f 9cbd 9fbe c227 6d3f 657b 40bf
00000120: 750c 84bd d263 5cbf 160f 51be 1005 853d
00000130: 2cb4 8ebe 4157 c33d 422c db3e 6a61 5cbf
00000140: c12c b43e a9bf ec3e d43f 743f 36c5 41be
00000150: 8c7f 713d aaa3 e63d 1ffe 0ebe 349f 8ebe
00000160: effa af3e ac39 073e 1767 cf3d e6f8 e03c
00000170: 749e 01bf a4f1 bd3e 9851 f6bd b7bb 0d3f
00000180: 2138 c83e 6a85 4b3e 0640 883f f30b eebe
00000190: d269 48bf 3892 9dbd 9979 09be 4335 183f
000001a0: b0c9 3c3f 6390 17bf a653 163f ded5 793f
000001b0: 84ea b9be d6bb 953f 123f 1f3f 5283 1d3f
000001c0: b91b 0b3e 0e53 763e 412e 32be fd68 87bf
000001d0: 7218 d1be a463 f73e 2600 8cbd 3faf c2be
000001e0: 74f6 453e 5382 89bf 17cc c3be 1984 ef3e
000001f0: 84cc 45bf 87f5 013f 0132 493f 6338 c03e
00000200: 672c e23c 521d 5f3f ccb7 a43e 65fe 673f
00000210: 5272 563f 8a10 47bf 7542 553e faa6 513e
00000220: 91db 71bd 5c45 b93f b70e 163f 77a7 8f3e
00000230: d76a babe 6db4 17bf 83a4 3a3f 9824 9c3e
00000240: d2eb 933e f8c3 2fbf 6687 7a3e 1bc3 e83e
00000250: 9e98 be3e 3cfb e5be 6eeb 1cbd bb53 193f
00000260: d7fd 863f 1d98 7a3d 1129 1e3f fa56 eb3e
00000270: b4d2 84bf 73e0 eabe 3b43 27bf e4f8 6dbf
00000280: 9ced 2a3e 395d 1b3f cce6 873e 12d7 403e
00000290: 8c79 e83e 0972 ff3e 07e0 12be 1662 1a3f
000002a0: b241 803e 4476 0abc 495d f9bd 6fab 993f
000002b0: 9f0a c23d 8ba5 043f e420 093e eeed 8b3e
000002c0: 29c0 77be d142 90be 56e1 043e 7c4f 3e3f
000002d0: 9aab 6b3f b978 093f b128 273c 2850 783f
000002e0: 5ea6 ae3e fcac bb3d c989 df3e 9001 71bf
000002f0: 70fd 65bf c087 723d 2678 02bf 8402 533d
00000300: 6dd0 1a3f abb2 df3e b8d9 c4be 0422 41bd
00000310: b0ce 723d 0012 38bf 96df 03bd 73ff 4b3f
00000320: 7fef d9be 5156 d13e 03f9 e53e 3e7e c13f
00000330: 8992 743f 7b2a 0f3e 4d23 223f 5166 c4bf
00000340: 30b7 0b3f 886c 75bf 8ad1 643e 0a72 433f
00000350: 0431 64bf ca02 46bf 4d85 fb3e 3d72 4e3c
00000360: c611 b43e b159 8a3f 05a9 4cbe a47b 813f
00000370: b04a 943f 33e4 c3bf c4c7 d53e b9e5 233e
00000380: 7e4b d03c 6b36 6fbf e825 173f 3edc 2dbe
00000390: 8830 ddbe 4d70 ee3e 293d cc3e 6331 3bbe
000003a0: db56 b93e 096c 063f 97eb b23e d279 3f3e
000003b0: 3807 c73d 40b4 b33e c454 33be f67d 0c3f
000003c0: aa20 b3bf 848e 2cbe 14e9 4dbe 53c8 6ebe
000003d0: 8286 bfbf 7c74 09bf 1623 c03e de5a d33f
000003e0: 0ad7 4abc 8795 3abf 73aa 99be 9bf0 c8bd
000003f0: 21b0 2f3f 409f c5bd ecde bd3e aa0e 42bf

l1.bias f4 [8]
0.8608438 0.8174945 0.9343725 1.3536876 1.0248095 0.76388514 1.2164723 1.1885629
00000000: 4260 5c3f 5247 513f 0933 6f3f a345 ad3f
00000010: f52c 833f fa8d 433f 5db5 9b3f d422 983f

l2.weight f4 [8, 8]
0.50900006 -0.2348534 -0.028110791 1.6376405 -0.41326725 2.2012274 -0.46323815 0.14621744
-1.321904 1.3422309 2.3055947 1.2945465 0.20111401 0.6679496 -0.73184055 1.3727946
1.1578267 0.72516066 -1.0838618 1.376242 -1.0020082 -1.2718267 0.14348899 2.1335495
-0.045572896 -0.54686886 -1.5465752 0.9854579 2.4225652 -0.5707153 1.152477 -0.07419571
0.093020424 1.6803081 -1.3092957 -0.682109 0.035798796 2.0790346 1.7471476 0.65554136
-1.7959987 1.7627969 0.1567381 -0.5332644 0.90403265 0.485798 0.1868331 1.3013171
1.9110533 0.629679 1.9166416 -1.4228876 0.5943525 -0.73541707 1.5306205 1.2180165
-0.013266573 -0.94700366 1.731951 1.4066603 0.26655546 -1.1487081 1.5957955 -0.43007982
00000000: d44d 023f 697d 70be 9a48 e6bc 349e d13f
00000010: c497 d3be e9e0 0c40 8d2d edbe 06ba 153e
00000020: 2634 a9bf 39ce ab3f dd8e 1340 b3b3 a53f
00000030: d5f0 4d3e bffe 2a3f e759 3bbf bcb7 af3f
00000040: aa33 943f 21a4 393f fcbb 8abf b328 b03f
00000050: ce41 80bf 38cb a2bf c7ee 123e 138c 0840
00000060: a5aa 3abd 99ff 0bbf 2df6 c5bf f846 7c3f
00000070: 4f0b 1b40 661a 12bf 5e84 933f ecf3 97bd
00000080: 7e81 be3d 5614 d73f 0097 a7bf b29e 2ebf
00000090: c2a1 123d e70e 0540 88a2 df3f 8fd1 273f
000000a0: 49e3 e5bf 54a3 e13f f47f 203e 0484 08bf
000000b0: af6e 673f 84ba f83e 2d51 3f3e 8f91 a63f
000000c0: 659d f43f a532 213f 8354 f53f 2e21 b6bf
000000d0: 7c27 183f 4b44 3cbf 5feb c33f f7e7 9b3f
000000e0: 0a5c 59bc d56e 72bf 92b0 dd3f 720d b43f
000000f0: f579 883e de08 93bf 0743 cc3f 6c33 dcbe

l2.bias f4 [8]
1.154001 -0.2721795 0.85561913 1.0105398 -0.13914652 0.92472166 0.5834369 0.76379514
00000000: 4eb6 933f 1d5b 8bbe db09 5b3f 5e59 813f
00000010: 6d7c 0ebe 8fba 6c3f 1f5c 153f 1488 433f

l3.weight f4 [24, 8]
0.28517073 0.4196974 -1.880835 -0.089738354 -1.0927353 -1.0197843 -0.19801036 0.7089094
0.34032193 0.83672667 -1.6895832 -1.5334952 0.30573028 0.11697969 -1.1307296 -1.0013449
0.6087359 0.56066835 -0.0058301366 -1.9664999 -0.9372193 -0.5191589 -2.060408 0.2715858
0.3468298 -0.042987812 0.49217984 -1.91558 -0.97980094 -1.3947406 0.19079821 0.6744906
-0.94548106 -0.125748 0.4579075 -1.8827481 -0.49736863 0.84889215 0.4439141 -1.3597811
0.65085787 -0.1924314 -0.62415683 0.12117635 0.45549396 -1.995828 -1.0977453 0.36955613
0.28863272 -0.6736935 -1.163709 -2.0702116 0.9533584 0.43628532 0.21951745 -1.5716583
-2.2320726 -1.337712 -1.5720392 0.91239095 -0.2766608 0.37368238 0.54206353 -0.7444782
-0.029750872 0.27296194 0.5985779 -1.8498172 0.6100112 0.3029337 -1.4634693 -1.0240793
0.37138137 -2.1648893 -1.7055405 0.2596903 0.664302 0.24068007 0.27715087 -1.8651419
-2.5490637 -1.2506858 -2.2647803 0.43954715 -0.2729372 -2.1265378 0.98500997 0.37450722
0.9061209 -0.5230369 0.99523634 -1.2150146 0.013309309 -2.3916123 -0.57774836 -1.6132522
-0.029720591 0.565597 0.702777 0.5112436 -1.3451505 -1.424152 -1.8811239 -0.09214668
0.88185817 -0.5411035 -2.485555 1.0639943 -0.3951946 0.3641958 -1.6285903 -0.321531
-0.824873 0.24500105 -2.0546296 -0.9011077 0.009104894 0.86682963 0.097724214 0.048547175
-0.9101799 -2.2432845 -1.0890229 0.94044536 0.19242898 -1.0487392 -0.6176279 0.93192166
-0.430992 0.08307348 -1.168542 0.32709134 0.4869911 0.9142749 -0.8878493 -2.3066528
-0.6793969 -0.7745276 0.27960244 0.08364521 -0.61921066 -2.089888 0.44588596 0.5411484
-0.37352878 -0.91030157 0.5667682 -0.8587865 0.6920111 -1.227631 0.31320557 -0.776963
-2.0195174 -2.4916883 0.17170048 0.13415296 0.82178915 -0.32550323 0.4369626 -0.48210332
0.80395514 -1.8337684 0.7079517 0.238134 -1.6174207 -2.1130986 -0.9741016 0.78336877
0.21508473 -1.852821 -1.9247357 -0.3732127 0.41101405 -2.114441 0.4994252 0.48949727
-0.5243593 -0.7080986 0.5608277 0.050446022 -0.3522719 0.62475955 -0.6832515 0.13553739
-2.7474103 -0.25591198 -0.5796065 -0.74908894 0.053559862 -0.38681528 0.62713665 0.5035582
00000000: e601 923e 94e2 d63e 34bf f0bf bec8 b7bd
00000010: c0de 8bbf 4b88 82bf 3ac3 4abe 167b 353f
00000020: ad3e ae3e b833 563f 4344 d8bf 9249 c4bf
00000030: ae88 9c3e 0c93 ef3d bfbb 90bf 122c 80bf
00000040: 1ed6 1b3f f687 0f3f bb0a bfbb 45b6 fbbf
00000050: 9bed 6fbf 99e7 04bf badd 03c0 4b0d 8b3e
00000060: ad93 b13e fd13 30bd fffe fb3e ba31 f5bf
00000070: 3cd4 7abf dc86 b2bf 9b60 433e 6aab 2c3f
00000080: 0c0b 72bf 15c4 00be da72 ea3e e4fd f0bf
00000090: 1aa7 febe ff50 593f b548 e33e 4f0d aebf
000000a0: 9f9e 263f bd0c 45be bec8 1fbf 4e2b f83d
000000b0: 8136 e93e 4b77 ffbf eb82 8cbf 7636 bd3e
000000c0: abc7 933e 2d77 2cbf 6bf4 94bf 597e 04c0
000000d0: 4c0f 743f ca60 df3e 2fc9 603e 192c c9bf
000000e0: 47da 0ec0 263a abbf 9538 c9bf 7492 693f
000000f0: 7ca6 8dbe 4c53 bf3e adc4 0a3f 2096 3ebf
00000100: 1ab8 f3bc abc1 8b3e 673c 193f cfc6 ecbf
00000110: b229 1c3f 201a 9b3e f652 bbbf 0815 83bf
00000120: b325 be3e 8c8d 0ac0 274f dabf 21f6 843e
00000130: b20f 2a3f d674 763e b8e6 8d3e f8bc eebf
00000140: dc23 23c0 7916 a0bf 29f2 10c0 530c e13e
00000150: 6dbe 8bbe 3219 08c0 9d29 7c3f 69bf bf3e
00000160: 8af7 673f bfe5 05bf cfc7 7e3f 9985 9bbf
00000170: 4a0f 5a3c 2d10 19c0 51e7 13bf 0c7f cebf
00000180: 9978 f3bc f7ca 103f 32e9 333f dce0 023f
00000190: e42d acbf 9d4a b6bf abc8 f0bf 66b7 bcbd
000001a0: 75c1 613f c285 0abf 5513 1fc0 f730 883f
000001b0: f256 cabe df77 ba3e a675 d0bf b69f a4be
000001c0: e02a 53bf 8ee1 7a3e 0d7f 03c0 ffae 66bf
000001d0: b12c 153c 8ce8 5d3f a223 c83d 67d9 463d
000001e0: 8d01 69bf f991 0fc0 1a65 8bbf 07c1 703f
000001f0: 1a0c 453e 163d 86bf dd1c 1ebf 6b92 6e3f
00000200: fcaa dcbe 6e22 aa3d c992 95bf 8478 a73e
00000210: e656 f93e eb0d 6a3f 174a 63bf 33a0 13c0
00000220: f5ec 2dbf 7147 46bf 0d28 8f3e 2e4e ab3d
00000230: 9784 1ebf bac0 05c0 2a4b e43e b488 0a3f
00000240: 2a3f bfbe 8609 69bf b917 113f 6fd9 5bbf
00000250: a427 313f 0323 9dbf 7b5c a03e 0ce7 46bf
00000260: c63f 01c0 d277 1fc0 40d2 2f3e 655f 093e
00000270: c660 523f 5ca8 a6be 90b9 df3e 3fd6 f6be
00000280: 01d0 4d3f ecb8 eabf 533c 353f 66d9 733e
00000290: a407 cfbf 023d 07c0 b95e 79bf db8a 483f
000002a0: 2c3f 5c3e 3d29 edbf bd5d f6bf bc15 bfbe
000002b0: 6f70 d23e 0053 07c0 a9b4 ff3e 639f fa3e
000002c0: 693c 06bf f345 35bf 6792 0f3f 7da0 4e3d
000002d0: fc5c b4be 3ef0 1f3f 92e9 2ebf 50ca 0a3e
000002e0: 92d5 2fc0 e506 83be 1761 14bf 4bc4 3fbf
000002f0: 9661 5b3d a70c c6be 078c 203f 31e9 003f

l3.bias f4 [24]
0.0115988385 0.1815455 -0.32680538 -0.21006113 0.11863771 -0.24556468 0.08312907 -0.12483304
0.077281125 0.17999344 -0.23628695 0.39744428 -0.2862008 0.46211946 0.4010914 -0.16949882
-0.48737177 -0.05960397 -0.42963055 -0.32337514 0.039944198 0.3206812 -0.16659315 -0.5478296
00000000: 0e09 3e3c 10e7 393e 0953 a7be 441a 57be
00000010: 54f8 f23d 4f75 7bbe 933f aa3d 77a8 ffbd
00000020: 9145 9e3d 3350 383e 35f5 71be d17d cb3e
00000030: e988 92be ec9a ec3e da5b cd3e 1991 2dbe
00000040: cb88 f9be 4b23 74bd 89f8 dbbe 6d91 a5be
00000050: 879c 233d 5430 a43e 6597 2abe 903e 0cbf
