data.pth (torch, 6423 bytes, 6 tensors)

l1.weight f4 [8, 75]
000000 f9 59 21 3f 52 49 f9 3e f6 11 c3 3e 51 a9 8c 3e
       0.6302791 0.4868875 0.3809964 0.27472928
000010 1d 02 83 be e1 46 0a 3f 52 cd d5 3e f1 f1 b3 3e
       -0.2558755 0.540144 0.4175821 0.35145524
000020 51 5a 07 be 2a b2 5d be 75 45 80 bf 03 d9 6e 3f
       -0.13218047 -0.21649995 -1.0021197 0.93299884
000030 e2 d5 84 3e 35 fe 51 3f 54 3e 2a 3f fd e8 a0 3f
       0.2594443 0.82028514 0.66501355 1.2571102
000040 de d8 8f 3f 14 09 37 3f 17 f1 1f 3f 84 8e 06 be
       1.1238058 0.7149823 0.6247725 -0.13140303
000050 32 48 99 bc 0d fa d8 bd 86 0b 69 bf c3 e5 5b bf
       -0.018711183 -0.105945684 -0.9103321 -0.85897464
000060 c4 ec c1 3e 8a bd cd be 7e 00 ac 3f a7 16 f3 be
       0.3787595 -0.4018367 1.343765 -0.4747822
000070 76 d3 d2 3e 1c b3 82 3f ed 2e 7e 3f e6 b4 3b be
       0.41176957 1.021091 0.99290353 -0.18330726
000080 d2 bb 61 be c0 6e 2f 3f c6 bc 04 3f 6a 33 41 3f
       -0.22044304 0.68528366 0.51850545 0.75469077
000090 85 7a 29 3f f8 4e b1 3e 84 8b 11 3e 71 18 49 bf
       0.66202575 0.3463056 0.14213377 -0.7855292
0000a0 eb 2b 91 bf fb 66 19 3f b8 b6 f8 3e 17 a0 c1 3e
       -1.1341528 0.5992276 0.48576903 0.3781745
0000b0 8f ac f7 be a8 f1 83 be b5 01 0f 3f b3 f0 d9 3e
       -0.4837384 -0.25770307 0.5586198 0.4256645
0000c0 10 b5 b9 bf e6 ac 47 bf 1b 95 15 3f 44 c5 dd 3e
       -1.4508381 -0.779982 0.5843064 0.43314564
0000d0 4a 85 56 3e 12 e1 68 3d c6 d3 00 3e 56 a4 f2 be
       0.20949283 0.05685527 0.12580785 -0.47391003
0000e0 89 1b b9 3e be e0 60 be fd 43 0a be da 01 57 3f
       0.3615382 -0.21960732 -0.13502498 0.839872
0000f0 93 2c e1 3e 78 8c 03 3f 1f 4b 98 3f 18 38 1c 3f
       0.4397932 0.51386213 1.1897925 0.6102309
000100 58 78 27 3d 46 c4 e4 3e f5 fb 1d 3e 0c 85 72 3f
       0.040886253 0.44680995 0.15428145 0.94734263
000110 97 87 9a 3e 95 f0 5e 3d 6b 2c 16 bf 95 b9 ad 3e
       0.30181572 0.054428656 -0.58661526 0.3393065
000120 7a 9b dd bc 72 78 17 3f d0 2b de be 48 6c 89 3e
       -0.027051676 0.5916816 -0.433928 0.26840425
000130 17 5f a8 3e 1c d2 28 3f a6 34 8c 3f 5f 29 83 3f
       0.32885048 0.659456 1.0953567 1.0247
000140 a6 cc af be 74 b8 d8 be 95 fd df 3e 13 19 e4 3e
       -0.34335822 -0.42328227 0.43748155 0.4455038
000150 31 d0 9f 3f 62 33 d6 3e 44 e4 b1 be c7 43 6e 3f
       1.248541 0.41836077 -0.34744465 0.9307217
000160 8a 2f 40 3f 78 f3 13 bf 88 64 80 bf 46 6e c5 3d
       0.7507254 -0.5779338 -1.003068 0.096401736
000170 8e 99 21 bf 04 c0 85 be 84 46 84 3f f6 65 10 3f
       -0.6312493 -0.2612306 1.033402 0.5640558
000180 72 92 6c 3e f7 37 ef 3e db 8a 7b be 21 fc aa 3e
       0.2310274 0.46722385 -0.24564688 0.33395484
000190 82 f3 8f 3e 27 33 29 bf 30 7e 15 bc 56 aa e8 be
       0.2811547 -0.6609368 -0.009124324 -0.45442456
0001a0 8e 09 20 be 14 b1 79 be bf 0a c7 3e 16 06 98 3e
       -0.15628645 -0.24383956 0.38875386 0.29692143
0001b0 75 15 4b bf a5 23 37 3b 7f 77 43 bf 48 61 3b bf
       -0.79329616 0.002794483 -0.7635421 -0.73195314
0001c0 44 45 f2 3d cb f2 0e 3f 5d 4f 90 3e d2 3f d2 3e
       0.118296176 0.5583922 0.2818555 0.41064316
0001d0 21 25 83 3e 15 ea c8 3e 95 f8 58 be 55 b5 8a 3f
       0.25614265 0.3924109 -0.21188577 1.0836588
0001e0 ff 35 7f 3f f1 1d b7 3e d3 83 2f 3f b9 91 42 bf
       0.99691767 0.3576503 0.6856052 -0.76003605
0001f0 59 c6 93 3e 80 34 24 bd 85 f2 a1 bd 93 5b 30 3e
       0.28862265 -0.04008913 -0.07907585 0.17222433
000200 f1 aa c4 3f 4b 4b d1 3e ff 4d 82 3f 04 44 39 3f
       1.5364667 0.40877756 1.0180053 0.7236941
000210 29 f7 b0 3e 11 ab 03 bf 0c 27 91 bf fb 89 2f be
       0.34563568 -0.514329 -1.1340041 -0.17142479
000220 1d 76 d0 3e dc 62 60 bc 97 cf 87 3d b8 ef f8 bd
       0.40715113 -0.013695445 0.066313915 -0.12155098
000230 38 59 8f be 7f 5b 0c 3f d9 16 73 be 5c 4c a8 3e
       -0.27997756 0.5482711 -0.23739184 0.32870758
000240 6f a2 15 3f c6 e1 89 3f 01 a9 fa 3e 8f 90 18 3f
       0.5845098 1.0772026 0.48957065 0.5959558
000250 02 6c 9e 3e 03 ed 7d 3d 50 6d a8 be 08 8f 4e bd
       0.30941778 0.06199361 -0.328959 -0.050429374
000260 31 66 a7 3e 39 f3 98 3e 81 ed c8 3e da 4e b9 3e
       0.32695153 0.29873064 0.392437 0.3619297
000270 62 ac 95 3f 0a b0 05 3f 59 30 9a be 9c 31 08 bf
       1.1693232 0.5222174 -0.3011501 -0.532007
000280 de 34 20 3f 82 d8 74 bf 33 6d 50 3d 39 3d da 3e
       0.6258067 -0.95642865 0.05088539 0.42624834
000290 94 0a 79 be b6 1f f8 be 47 b9 88 bf 96 c9 76 be
       -0.24320441 -0.48461694 -1.0681542 -0.24100336
0002a0 85 2c 32 3f 05 bb bb 3f a7 bf f1 be 76 cf a8 3e
       0.6959918 1.4666449 -0.47216532 0.3297078
0002b0 8f 9f 68 bf d9 03 a0 bf d1 7d e5 be e2 dc a7 3d
       -0.9086847 -1.2501174 -0.44822553 0.08196427
0002c0 c2 09 95 3f 81 22 83 be 70 df 4f 3f 79 ec 73 bf
       1.1643603 -0.25612262 0.81200314 -0.95282704
0002d0 50 e2 74 bf c9 f6 88 be c1 67 c9 be 31 48 67 3f
       -0.95657825 -0.26750782 -0.3933697 0.9034453
0002e0 3e 2f cc be 7e b9 51 3f 69 ab 81 3f 28 69 07 3f
       -0.39879793 0.81923664 1.0130435 0.5289483
0002f0 8b 3e 73 3e 22 e6 92 be dc df 74 bf 3e e1 21 3f
       0.23754327 -0.28691202 -0.9565408 0.6323432
000300 e2 8c be bd 4e 9e f6 be 09 f8 e2 3f e4 e8 51 bd
       -0.09304215 -0.48167652 1.7731944 -0.051247492
000310 d0 4c c7 3b b5 0f 23 3e e3 df 9c 3f 08 7e 77 3e
       0.006082155 0.1592396 1.2255825 0.24169171
000320 16 2b 80 be b0 8d be bc 3a 3b 94 3f 05 ca 3d 3f
       -0.25032872 -0.023260921 1.1580575 0.7413638
000330 24 0a bf 3e d8 e4 47 bf 1c e5 e4 3d 0a 31 98 be
       0.37312424 -0.7808356 0.11176512 -0.29724914
000340 03 d8 26 be 85 5e 6c 3f 74 42 03 bf eb 1e 00 3f
       -0.1629334 0.92331725 -0.51273274 0.5004718
000350 2c e3 74 bf 51 46 6a be 9c 31 83 be 4c 55 c3 3e
       -0.95659137 -0.22878386 -0.25623786 0.38151014
000360 3f af 71 3f c0 dc 74 bf d0 9d f1 bd 62 1b 47 3f
       0.9440803 -0.9564934 -0.117976785 0.7777616
000370 0d b7 fc 3d dc 75 8c 3f b9 a0 43 be 23 2d 3b 3d
       0.12339602 1.0973468 -0.1910428 0.045697343
000380 ab a5 43 3e 62 14 81 be df 2e 94 bc af f7 a3 3c
       0.19106166 -0.25210863 -0.018088756 0.020015566
000390 b2 ce 56 3f 4e 0f 0e 3f a2 ba 27 3e 29 58 36 3e
       0.8390914 0.55492103 0.16379789 0.17807068
0003a0 0a ba 28 bd 9d e3 d4 3d f6 6b 59 bf ff 4c 88 3f
       -0.041193046 0.10394976 -0.8493036 1.0648497
0003b0 54 69 1a bf ce 36 6c 3e 2f 56 56 bc a5 69 4f be
       -0.6031697 0.23067781 -0.013082071 -0.20255144
0003c0 e1 cd b0 be 25 23 6f bf dd 1f 12 be 9c 03 ea 3c
       -0.34532073 -0.93413 -0.14269967 0.028566174
0003d0 43 b0 24 3f 94 7d a1 be 59 bc 41 3f 6c 22 77 bf
       0.64331454 -0.3154112 0.7567802 -0.965369
0003e0 6f 1c 7c 3f 98 e4 5a be b2 47 05 be 1d dd dd bd
       0.98480886 -0.21376264 -0.13015631 -0.1083319
0003f0 e2 12 b0 3e a2 56 c6 3c fa c7 03 bf e2 1a 29 bf
       0.34389406 0.024211232 -0.51477015 -0.66056645

l1.bias f4 [8]
000000 80 d6 ab 3f 7d 21 4f 3f 2f da 74 3f 27 17 29 3f
       1.3424835 0.80910474 0.9564542 0.6605095
000010 bd 55 53 3f 0a a9 4d 3f eb 07 a8 3f fd b3 9c 3f
       0.825527 0.8033606 1.3127416 1.2242428

l2.weight f4 [8, 8]
000000 c3 2b 66 3e 98 df 9f 3f ff 3d 87 3f c5 82 02 3f
       0.22477631 1.249011 1.0565795 0.5098079
000010 0f b9 d9 3e 06 53 46 bf 4f 34 83 3f cc f3 a6 bf
       0.42524 -0.77470434 1.0250338 -1.3043151
000020 71 31 23 3f 48 45 81 3f 07 af e9 bf 3d 8b 91 bf
       0.63747317 1.0099268 -1.8256539 -1.1370617
000030 91 cb 3e be 13 3b 09 3f 7f 06 e0 3f 34 b4 2d 3f
       -0.18632342 0.53605765 1.7501982 0.67853093
000040 1b e4 a6 be b5 cf 90 be a7 5b 41 be 74 85 93 3e
       -0.32595906 -0.28283468 -0.18882619 0.28812754
000050 b6 2c b1 3d 0d d9 a6 be cb ff aa bd fe a0 48 be
       0.08651106 -0.32587472 -0.0834957 -0.19592664
000060 1b 76 d8 be 56 d9 85 3f b0 09 58 be 70 7e a7 3f
       -0.42277607 1.0456951 -0.21097445 1.3085461
000070 2b cc c8 3f d1 3f 05 bf 48 a9 74 bf 11 8d d9 3f
       1.5687307 -0.520505 -0.955708 1.6996175
000080 8b cc f5 3e e0 d2 90 3f 35 0d c7 3c 93 ca 45 be
       0.48007616 1.1314354 0.02429829 -0.19315557
000090 e1 be 89 3f eb 40 bc bf bb dd c3 3e e1 f6 9f bf
       1.0761377 -1.4707311 0.38255104 -1.2497216
0000a0 8d 53 0d 40 66 5d 9c 3d 1c ec e4 3f 27 a7 d6 be
       2.2082245 0.07635002 1.7884555 -0.41924402
0000b0 50 d1 87 bf d6 3f d0 3f ea c1 54 3e a5 c2 82 3f
       -1.0610752 1.6269481 0.20777097 1.0215651
0000c0 98 fd c8 3f b3 56 38 bf 56 a6 17 be 88 64 1f be
       1.5702391 -0.7200729 -0.14809546 -0.15565693
0000d0 ec 55 cf 3f a4 ab a0 bf 97 cd e6 3e a4 97 5a 3f
       1.6198096 -1.255238 0.45078728 0.85387635
0000e0 82 20 aa bf 6f 81 3f 3f aa f0 eb 3f c8 28 e9 3f
       -1.3291171 0.74806875 1.843282 1.821557
0000f0 bd 0f 65 3e 6e 99 bf 3f 20 a2 1c 3f 2d f0 b2 3e
       0.22369285 1.4968698 0.61184883 0.34948865

l2.bias f4 [8]
000000 c7 fe bb 3e 54 86 61 3f 3e 3f d2 bd ac 73 88 3d
       0.36717817 0.88095593 -0.10265969 0.06662688
000010 5e d7 e6 3e 9b d6 82 3f 09 54 36 3f eb 5e 12 3f
       0.45086187 1.0221742 0.7122198 0.57176083

l3.weight f4 [16, 8]
000000 0b ba ab be 6e 3a 80 3f 1b b0 c2 be 61 26 53 bf
       -0.33540377 1.0017831 -0.38024983 -0.82480437
000010 65 f7 b7 bf 09 28 8a 39 06 85 f9 bf 32 5c 8a 3e
       -1.4372374 0.0002635124 -1.949372 0.27023464
000020 22 aa f8 3e 7d 3d b6 be 6f e5 ba 3d 73 36 3d be
       0.485673 -0.35593787 0.09125792 -0.18477802
000030 98 be dd be f7 98 3e be d5 54 61 bf 87 be 66 3e
       -0.43309474 -0.18613039 -0.8802007 0.22533618
000040 07 f5 52 3f f1 f4 58 3f c6 3f 8e be 51 22 e2 bf
       0.8240513 0.8474875 -0.2778303 -1.7666723
000050 58 48 3c 3f 14 5d 71 bf 4f 44 92 bf b8 a7 ea be
       0.7354789 -0.9428265 -1.1427096 -0.45831084
000060 a2 c3 0b 3f f5 22 c5 bf d2 dc 92 3e 0d e7 4b bd
       0.54595387 -1.5401293 0.28684098 -0.049780894
000070 a8 bb 9a 3e 41 eb f6 bf f3 3b 19 bf 75 65 00 3f
       0.30221295 -1.9290544 -0.598571 0.5015481
000080 61 36 97 bd ec 80 0c 3f 5e 24 d5 be 30 a5 e3 bf
       -0.07383419 0.5488422 -0.41629308 -1.7784786
000090 43 12 29 3d 8c e0 20 be 01 d8 39 3f c7 b7 cd bf
       0.04127718 -0.15710658 0.7259522 -1.6071709
0000a0 96 63 cf bd 57 05 52 be 4b 9a 27 3d 02 ba 25 3e
       -0.101264164 -0.2050985 0.04091863 0.16184238
0000b0 8d 25 06 3f 56 39 f1 be 42 24 82 3e 44 b2 ba bf
       0.5240105 -0.47114056 0.25418288 -1.4585652
0000c0 bc 65 0b 3e 7f 17 ea bf e7 b0 19 bc 10 5e bd 3d
       0.13613027 -1.828842 -0.009380556 0.092464566
0000d0 0d d0 20 3f a5 2c f2 be d3 9b c1 bd cc a2 a3 be
       0.6281746 -0.47299686 -0.09453549 -0.31960142
0000e0 a3 d6 14 c0 bf b6 9c bf b9 89 e7 3d e3 43 6f 3f
       -2.3256004 -1.224327 0.113055654 0.9346296
0000f0 32 dc 89 bf 8d c0 2a be b8 6a 8d bf be aa d7 3e
       -1.0770323 -0.16675015 -1.1048193 0.42122453
000100 ee 3d 8f 3e 1e f6 a5 bf e7 6c 05 be 31 9b ab bf
       0.27976936 -1.2965734 -0.13029824 -1.3406736
000110 bd 16 47 3e fd d2 73 3e f2 41 00 3f 40 94 e7 be
       0.19442268 0.23810954 0.50100625 -0.45230293
000120 ec cb 08 c0 73 77 92 3e 80 a3 4b 3c ee c3 c8 3e
       -2.1374464 0.28606758 0.012429118 0.39211982
000130 fc a7 8b bf 25 c7 04 bd 35 c4 6c 3f 5e 06 f9 bf
       -1.091064 -0.03241648 0.9248689 -1.9455068
000140 7a b0 88 bf db f8 87 bf e9 b6 e7 3d b1 d8 f4 bf
       -1.0678856 -1.062282 0.11314184 -1.9128629
000150 91 86 ac bf 19 fa 7d 3f fd 39 34 be 4f 8b b0 3e
       -1.3478566 0.99209744 -0.17600246 0.34481284
000160 e4 65 65 bf f6 96 b5 be 3c 8d 08 be 50 bf 6a 3f
       -0.896086 -0.35466737 -0.13335127 0.9169817
000170 2d a4 b9 be 77 0c b6 bf 60 82 e4 3e ee c1 97 bd
       -0.3625807 -1.4222554 0.44630718 -0.07410036
000180 48 dd 96 3d db 83 93 bf ce 0b 12 bd ec c8 94 3e
       0.07366425 -1.1524614 -0.03565579 0.2905954
000190 1d 44 09 c0 a5 c2 ea 3e 5a e7 30 c0 df 35 a8 3e
       -2.1447823 0.45851627 -2.7641206 0.328536
0001a0 98 e9 01 3f 4b 92 c5 3e c6 47 1b bd a5 de 10 bd
       0.5074706 0.38588175 -0.037910245 -0.03536858
0001b0 6a b4 1a 3f 55 19 d5 bf 7b 84 94 be e4 c0 13 bf
       0.6043154 -1.6648356 -0.29007325 -0.577162
0001c0 c6 1e 81 bf 18 94 e6 bf 09 01 5c 3e a6 dd a5 3e
       -1.0087516 -1.8013945 0.2148477 0.32395667
0001d0 aa 80 ce bf 34 b7 b5 3e bb 80 41 3f 76 b5 b1 be
       -1.6133015 0.35491335 0.7558705 -0.34708756
0001e0 7c 59 fc bf 86 3b 77 3f 58 58 0c 3e 61 25 d4 bf
       -1.9714808 0.965752 0.13705575 -1.6573907
0001f0 87 82 b5 bf 59 19 32 3f 89 d3 4b 3d 5f 4d 8d bf
       -1.4180459 0.6956993 0.049762283 -1.1039237

l3.bias f4 [16]
000000 0c d5 a5 3e f3 6c 88 be 45 b7 b5 3d 03 22 04 be
       0.32389104 -0.26645622 0.088728465 -0.129036
000010 b4 ae 9f be c6 b7 1e be d1 56 d5 be 53 8d 00 be
       -0.31187975 -0.15499792 -0.41667798 -0.12553911
000020 3b 06 c8 be 70 b5 82 3e f6 f0 fd 3e bd 94 a6 3e
       -0.39067253 0.2552905 0.495979 0.32535353
000030 61 63 b5 3e 30 1d e6 be 87 46 4a be b6 42 a8 bd
       0.35427383 -0.44944143 -0.19753467 -0.08215849
