data.pth (torch, 5847 bytes, 6 tensors)

l1.weight f4 [8, 66]
0.3594953 0.32941183 0.068202816 0.80937546 0.079665795 0.0508989 0.20769745 0.2563767
0.43924648 0.83526754 0.65179896 0.6361883 -0.4771989 -0.22968078 -0.23800844 -0.16799441
-0.11037228 0.12426517 -0.6611071 -0.02460752 0.41992298 -0.50893307 0.19127224 0.14678793
0.63187766 0.5332781 -0.27890843 0.42479837 0.043652706 0.33320218 0.06782845 0.08375178
-0.16421698 0.51099145 0.46452364 0.00433576 0.40643755 0.38165462 0.5453818 -0.7723164
0.32026148 0.21952352 -0.12433108 0.16759999 0.42441192 0.05538017 -0.58687234 0.6920201
0.7672067 0.04258009 0.24907677 -0.059515245 0.36234018 0.34480745 0.79976434 0.48789668
0.25949055 0.026828844 0.22536014 0.34785345 0.3335911 0.519934 0.21233393 0.3097037
0.3877548 0.5803667 0.51517576 0.3329737 -0.5701491 -0.4974481 0.43946066 0.48555753
0.58577734 -0.017526038 0.9265497 0.68316835 -0.8270328 0.06691344 -0.077675834 -0.30917555
-0.30036944 -0.7335433 -0.45887756 0.5124558 0.9680136 0.023192935 0.0562661 -0.7684498
-0.122944415 0.59305257 -0.8266382 -0.19590466 0.29555935 0.5686764 0.81969774 0.37257507
0.8169146 0.8470601 0.38600612 0.1862256 -0.4759426 -0.50805086 0.7442044 0.3013716
-0.5258402 0.7850664 0.7756585 0.34494254 0.10558609 -0.0670319 0.442546 0.011365474
-0.33852157 0.053361356 -0.35571826 0.085507385 -0.58471036 -0.032070607 -0.4833837 0.124020875
0.75832707 0.28142387 -0.5675787 0.4216644 -0.012122795 -0.09815388 -0.11814236 -0.2341011
0.47131696 0.6601091 0.55841273 0.21015027 0.46429226 0.26727843 -0.048710767 0.19974509
-0.15253489 -0.48885962 0.1110237 0.007109789 0.2089534 0.95284116 0.34140044 -0.0679668
0.21553744 0.020797309 -0.1806444 0.50631535 -0.09328939 -0.29993486 -0.16404887 0.05747829
0.21879558 -0.42871693 -0.15206677 -0.0747252 0.38449597 -0.051862486 0.45049542 0.1615716
-0.3461213 0.45113206 -0.37804678 -0.37807542 0.040824197 0.16989638 -0.0715344 -0.3568948
-0.084614865 0.15359773 0.022860628 0.669649 0.1520683 0.24738133 0.49711007 0.043361634
0.3404483 0.052920405 0.51190746 0.23526876 -0.8742781 0.18443747 -0.2896689 -0.19713396
-0.0024840694 -0.1736323 0.7962885 0.41170663 -0.2092289 -0.067109145 0.0920318 0.13072358
0.023897057 0.08734544 0.63045293 -0.07262268 0.31989044 0.03196083 -0.19887687 -0.08721962
0.6059265 0.29809582 -0.28019997 -0.052878898 0.2675893 0.060034674 -0.14992926 0.7315125
-0.4531352 0.10784276 1.121951 -0.23459512 -0.22334236 0.9239347 -0.13791634 -0.2750106
0.8448162 0.21109451 0.122240104 1.0258751 0.18049248 -0.1822415 -0.45351788 -0.22146754
0.64692503 0.13366401 -0.45374736 -0.1135071 -0.4539054 -0.43208566 0.36041158 -0.21200365
-0.28679892 -0.40257844 0.05912121 -0.294806 -0.28970078 1.0402421 0.2864073 -0.01843247
0.47779077 0.17795567 0.07091622 0.12287523 0.74951744 0.08723484 -0.44366252 0.4503782
-0.28537977 -0.41058463 -0.36816803 0.69360924 -0.5084655 -0.14103869 -0.26073378 -0.23109695
00000000: c50f b83e aba8 a83e ebad 8b3d 3b33 4f3f
00000010: d227 a33d 5d7b 503d a4ae 543e cf43 833e
00000020: eae4 e03e 18d4 553f 4cdc 263f 3ddd 223f
00000030: 6a53 f4be 7031 6bbe 7cb8 73be ba06 2cbe
00000040: dd0a e2bd bd7e fe3d 513e 29bf b695 c9bc
00000050: 2500 d73e 7049 02bf dfdc 433e 934f 163e
00000060: bcc2 213f ea84 083f 16cd 8ebe 2c7f d93e
00000070: 2ecd 323d 7a99 aa3e a4e9 8a3d 0e86 ab3d
00000080: 7f28 28be 56d0 023f 0bd6 ed3e fe12 8e3b
00000090: 9518 d03e 3c68 c33e 249e 0b3f 87b6 45bf
000000a0: 50f9 a33e c6ca 603e 4ba1 febd 559f 2b3e
000000b0: 854c d93e 51d6 623d 443d 16bf 3b28 313f
000000c0: a967 443f 7668 2e3d fb0d 7f3e 42c6 73bd
000000d0: a784 b93e 9a8a b03e 5bbd 4c3f 98cd f93e
000000e0: f2db 843e 2ac8 db3c cfc4 663e d919 b23e
000000f0: 74cc aa3e 651a 053f 116e 593e 7c91 9e3e
00000100: cc87 c63e e992 143f 8fe2 033f 877b aa3e
00000110: 4bf5 11bf 84b1 febe fd00 e13e ff9a f83e
00000120: 81f5 153f c492 8fbc 5c32 6d3f 1fe4 2e3f
00000130: 6cb8 53bf ea09 893d 8214 9fbd 424c 9ebe
00000140: 06ca 99be 7ec9 3bbf 00f2 eabe 4e30 033f
00000150: bdcf 773f 1cff bd3c 4877 663d 20b9 44bf
00000160: 48ca fbbd 4bd2 173f 909e 53bf 3b9b 48be
00000170: 8e53 973e c794 113f b6d7 513f 29c2 be3e
00000180: 5121 513f eed8 583f 98a2 c53e ecb1 3e3e
00000190: c0ae f3be 9f0f 02bf 2e84 3e3f 614d 9a3e
000001a0: 779d 06bf 1dfa 483f 8e91 463f 4f9c b03e
000001b0: 853d d83d 0548 89bd 6495 e23e 4136 3a3c
000001c0: b352 adbe 7091 5a3d b420 b6be 7f1e af3d
000001d0: 94af 15bf 785c 03bd 117e f7be a8fe fd3d
000001e0: b921 423f ca16 903e d64c 11bf 65e4 d73e
000001f0: b09e 46bc e704 c9bd 9ff4 f1bd 33b8 6fbe
00000200: 7550 f13e e9fc 283f 23f4 0e3f a231 573e
00000210: b7b7 ed3e b8d8 883e f184 47bd fa89 4c3e
00000220: 1b32 1cbe cf4b fabe 6560 e33d 3cf9 e83b
00000230: e1f7 553e 66ed 733f 0acc ae3e 2d32 8bbd
00000240: d9b5 5c3e 1e5f aa3c d8fa 38be e29d 013f
00000250: 820e bfbd 1091 99be 6dfc 27be 5b6e 6b3d
00000260: f30b 603e c980 dbbe 64b7 1bbe 8709 99bd
00000270: a8dc c43e c26d 54bd 56a7 e63e 0773 253e
00000280: d036 b1be c8fa e63e 598f c1be 1a93 c1be
00000290: 4637 273d 51f9 2d3e a180 92bd eaba b6be
000002a0: 8f4a adbd b948 1d3e 3646 bb3c 1e6e 2b3f
000002b0: cbb7 1b3e 8851 7d3e 3685 fe3e f89b 313d
000002c0: 3d4f ae3e 11c3 583d 5e0c 033f 4bea 703e
000002d0: b1d0 5fbf 2ddd 3c3e 7b4f 94be 7cdd 49be
000002e0: c5cb 22bb aacc 31be 90d9 4b3f 36cb d23e
000002f0: 1a40 56be 8570 89bd 2b7b bc3d 67dc 053e
00000300: c3c3 c33c 2be2 b23d 5d65 213f 33bb 94bd
00000310: aec8 a33e 5ce9 023d 61a6 4bbe 33a0 b2bd
00000320: 001e 1b3f 04a0 983e 5f76 8fbe 8b97 58bd
00000330: 7701 893e ebe6 753d 0e87 19be 6744 3b3f
00000340: 5601 e8be aadc dc3d 179c 8f3f b439 70be
00000350: dcb3 64be fc86 6c3f f139 0dbe 30ce 8cbe
00000360: e045 583f 2929 583e 0559 fa3d e04f 833f
00000370: 05d3 383e 849d 3abe 7f33 e8be 63c8 62be
00000380: e19c 253f 38df 083e 9351 e8be 6976 e8bd
00000390: 4a66 e8be 553a ddbe de87 b83e 7c17 59be
000003a0: 4fd7 92be c31e cebe 1529 723d d0f0 96be
000003b0: a953 94be a726 853f faa3 923e b1ff 96bc
000003c0: fea0 f43e 033a 363e 863c 913d 02a6 fb3d
000003d0: 60e0 3f3f 2ea8 b23d bc27 e3be f997 e63e
000003e0: 4c1d 92be 2638 d2be 8580 bcbe 6090 313f
000003f0: cc2a 02bf 726c 10be e67e 85be aea4 6cbe

l1.bias f4 [8]
0.65825826 0.827089 0.37804985 0.44975224 0.8192206 1.0384947 0.8013628 0.66568696
00000000: 9d83 283f 1bbc 533f c08f c13e ed45 e63e
00000010: 71b8 513f 65ed 843f 1d26 4d3f 766a 2a3f

l2.weight f4 [8, 8]
0.8086701 1.2389853 -0.84544873 -0.77089435 -0.9019414 0.6090656 1.4520801 0.6389964
0.5507302 -0.052930027 1.3272194 -0.35724732 1.2400148 1.0306085 -0.7886828 -0.68149424
1.0142082 -0.4221148 1.2446567 -0.78579116 0.17697284 -0.009435596 1.025231 -1.2595615
0.29972318 0.98437816 1.4552541 1.0397892 -0.2385084 0.34123948 -1.155586 0.19081803
-0.7638539 0.5734401 0.2704609 0.9325623 1.0547364 1.3379536 1.664031 -0.10187005
0.418963 -1.4054997 -0.8686522 -0.16257393 1.1997564 0.408879 0.86577547 0.4470881
1.0321553 -0.7332035 0.24879362 1.0113391 -0.2531921 -0.15939413 -0.96433115 1.3447758
0.9271716 1.2439878 0.7243109 -0.013929497 0.779986 -1.3096855 0.48275828 0.3446197
00000000: 0105 4f3f 1297 9e3f 546f 58bf 5559 45bf
00000010: a2e5 66bf b9eb 1b3f c3dd b93f 4595 233f
00000020: a8fc 0c3f 28cd 58bd 53e2 a93f 1fe9 b6be
00000030: ceb8 9e3f fbea 833f 1ee7 49bf 6876 2ebf
00000040: 93d1 813f 6e1f d8be e950 9f3f 9c29 49bf
00000050: 5e38 353e c297 1abc c53a 833f 5039 a1bf
00000060: 5175 993e 3500 7c3f c445 ba3f d017 853f
00000070: 8c3b 74be f1b6 ae3e 3eea 93bf cd65 433e
00000080: ee8b 43bf f8cc 123f da79 8a3e 67bc 6e3f
00000090: 9a01 873f 1042 ab3f f8fe d43f 3fa1 d0bd
000000a0: 5182 d63e 6ae7 b3bf fe5f 5ebf c879 26be
000000b0: 9e91 993f 9758 d13e 76a3 5d3f bbe8 e43e
000000c0: aa1d 843f 39b3 3bbf c1c3 7e3e 8f73 813f
000000d0: 65a2 81be 3738 23be 68de 76bf 9d21 ac3f
000000e0: 1e5b 6d3f fe3a 9f3f 706c 393f 8c38 64bc
000000f0: 2aad 473f c6a3 a7bf 182c f73e fe71 b03e

l2.bias f4 [8]
0.7171847 0.43152916 0.09769194 0.21431258 0.8184234 0.52158475 0.41905937 0.38840675
00000000: 6b99 373f 64f1 dc3e b612 c83d c274 5b3e
00000010: 3284 513f 9486 053f f38e d63e 40dd c63e

l3.weight f4 [13, 8]
-0.37255105 -1.3940233 -0.7617363 -0.6805216 0.31111208 0.75585985 -0.06403056 0.019139877
-1.6689893 -0.16893871 -1.8621496 0.1721328 -0.017404849 0.31505913 0.024679758 0.4001453
0.6185187 -1.1142607 -1.5706134 0.34494874 -0.6797691 -1.8041523 0.004900824 0.24191667
-0.13235876 -0.011584715 -0.7635177 0.52613807 -1.0609246 -0.3680882 0.35872328 0.17468908
-0.9639145 0.84748983 -1.1370468 -1.1517364 0.2651891 0.8947873 -0.7359633 -1.107062
-0.8881112 0.14419731 -0.8590353 0.64556795 0.0935404 0.16892555 0.16879389 -1.6873752
0.20668401 -1.540281 -0.86248606 0.55867326 0.30663344 -0.67642194 0.12621091 -1.1184815
0.15812221 0.31403634 1.0646056 -1.6586983 0.13848026 0.47973913 -1.0713211 -0.75315076
0.9954039 -0.449735 -1.1331124 -0.61612344 0.4092488 -0.16784027 -1.5005912 -0.13406973
0.41117674 0.15813643 -0.5979121 -0.5241932 -0.25195953 0.41616583 0.024582582 -1.4749228
-0.9109507 0.53079236 -1.6328827 0.5803936 0.5301112 -1.3573242 -0.8871082 -0.25878638
0.3985806 -1.1555891 -1.019017 -0.2731191 -1.4455601 0.444353 0.17790611 0.22948204
-0.42593148 0.7003052 0.5035509 -0.051263228 -0.3110635 -0.74559367 -1.2560267 0.48775807
00000000: 03bf bebe 5b6f b2bf 2601 43bf aa36 2ebf
00000010: 154a 9f3e 0880 413f 7422 83bd 3bcb 9c3c
00000020: 71a1 d5bf 45fe 2cbe eb5a eebf 9543 303e
00000030: 9d94 8ebc 6e4f a13e 342d ca3c d8df cc3e
00000040: 3e57 1e3f 18a0 8ebf dc09 c9bf 1f9d b03e
00000050: 5905 2ebf 76ee e6bf 1797 a03b 01b9 773e
00000060: 0e89 07be d1cd 3dbc e575 43bf fcb0 063f
00000070: 61cc 87bf 0e76 bcbe 94aa b73e b2e1 323e
00000080: 1ac3 76bf 18f5 583f c08a 91bf 196c 93bf
00000090: dec6 873e c810 653f 1768 3cbf 35b4 8dbf
000000a0: 415b 63bf 76a8 133e bde9 5bbf f143 253f
000000b0: 1c92 bf3d d2fa 2c3e 4ed8 2c3e e9fb d7bf
000000c0: f9a4 533e ee27 c5bf e3cb 5cbf 3605 0f3f
000000d0: 0fff 9c3e fd29 2dbf 6f3d 013e 672a 8fbf
000000e0: caea 213e 5fc9 a03e ff44 883f 3a50 d4bf
000000f0: c5cd 0d3e 5ea0 f53e 0d21 89bf 7dce 40bf
00000100: cad2 7e3f aa43 e6be d409 91bf 44ba 1dbf
00000110: 0f89 d13e 52de 2bbe 5f13 c0bf 9349 09be
00000120: c285 d23e 84ee 213e c410 19bf 8731 06bf
00000130: d700 81be b013 d53e 6961 c93c 45ca bcbf
00000140: 1134 69bf 02e2 073f 4d02 d1bf ad94 143f
00000150: 5eb5 073f cdbc adbf 8619 63bf a67f 84be
00000160: c212 cc3e 58ea 93bf 266f 82bf 44d6 8bbe
00000170: 1d08 b9bf 3d82 e33e 052d 363e 57fd 6a3e
00000180: b113 dabe 3447 333f b6e8 003f 64f9 51bd
00000190: b743 9fbe 3adf 3ebf 7cc5 a0bf 6dbb f93e

l3.bias f4 [13]
-0.16423179 -0.44798088 -0.07905847 -0.02773973 0.19369262 -0.068323925 -0.19051601 -0.062647246
0.18639457 -0.06780813 -0.05075659 -0.115759194 -0.16774517
00000000: 612c 28be c05d e5be 68e9 a1bd 6e3e e3bc
00000010: 5c57 463e 6aed 8bbd a116 43be 334d 80bd
00000020: 38de 3e3e fdde 8abd 24e6 4fbd 2813 edbd
00000030: 64c5 2bbe
